models/trained.model (torch_old, 332154 bytes, 12 tensors)

conv1.weight f4 [10, 3, 3, 3]
0	0x3cf5e675	0.030017117
1	0x3e1281d6	0.14307341
2	0x3dc3dc8f	0.095635526
3	0x3e444cd1	0.19169928
4	0x3d991664	0.07474974
5	0xbe0a71c5	-0.13519962
6	0x3dfce1f3	0.12347784
7	0xbe240fa8	-0.16021597
8	0x3e84d003	0.2593995
9	0x3e0f5ef8	0.14001071
10	0x3e24e58e	0.16103193
11	0x3e31cb1c	0.17362636
12	0x3db46326	0.088079736
13	0xbcb2abd8	-0.021810457
14	0x3e128f3f	0.14312457
15	0x3dd70cb0	0.10500467
16	0xbdfbbab8	-0.12291473
17	0x3e67310d	0.22577305
18	0xbea2bc08	-0.3178408
19	0xbe321c4f	-0.17393611
20	0xbe5f3e14	-0.21801025
21	0xbe9c07a6	-0.30474585
22	0x3d88000a	0.066406325
23	0x3ddbe2a0	0.10736585
24	0x3dfcad39	0.12337727
25	0xbe5e73f2	-0.21723917
26	0x3b6396ee	0.0034727412
27	0x3ce62643	0.028094416
28	0xbe19faf4	-0.15037137
29	0xbdcbf77e	-0.09959315
30	0x3d00da95	0.031458456
31	0x3e0c3eba	0.13695803
32	0xbea1501a	-0.31506425
33	0x3e75f4cd	0.24019165
34	0x3e4a0c61	0.19731285
35	0xbe561341	-0.20905782
36	0x3d9620f3	0.07330503
37	0xbe413067	-0.1886612
38	0xbe0cc016	-0.1374515
39	0xbd4487b5	-0.047980983
40	0xbd69d8c3	-0.057091486
41	0xbe58fcd6	-0.211902
42	0x3ddda159	0.1082179
43	0xbe13c854	-0.14431888
44	0xbdc59715	-0.09647957
45	0x3ea50c2d	0.32235852
46	0xbdbb1513	-0.09134879
47	0x3e379235	0.17926867
48	0x3e519003	0.20465092
49	0x3d42ff35	0.047606666
50	0x3dd335e7	0.103130154
51	0x3e9fc857	0.31207535
52	0x3d4cd92a	0.05001179
53	0xbe30edd8	-0.1727823
54	0x3de1f36d	0.11032758
55	0xbd8f1edb	-0.06988307
56	0xbe04206c	-0.12902993
57	0x3e82579a	0.2545746
58	0x3dfaf618	0.1225397
59	0xbe38bbe8	-0.1804043
60	0x3d0a7c3e	0.033809893
61	0xbbfe71e1	-0.0077650403
62	0xbdca7c56	-0.098869964
63	0x3eb66cbb	0.3562983
64	0xbe7c5132	-0.24640349
65	0xbed25fb9	-0.41088656
66	0x3eb34054	0.35010016
67	0xbddc5c06	-0.107597396
68	0xbe543274	-0.20722371
69	0x3bb88e3b	0.0056321896
70	0xbe009efa	-0.12560645
71	0x3dd68928	0.10475379
72	0x3eb63ed8	0.3559482
73	0xbe56d290	-0.2097876
74	0xbe3668c2	-0.178134
75	0x3e7e7d2a	0.24852434
76	0x3e3106d1	0.17287757
77	0xbe00a9d3	-0.12564783
78	0xbc84378f	-0.016139774
79	0xbd88a0c5	-0.06671289
80	0x3d123b17	0.035700884
81	0x3cdca051	0.026931914
82	0xbbe0f383	-0.0068649664
83	0xbd21809b	-0.03942929
84	0x3e34fb82	0.17674068
85	0xbe14ba80	-0.14524269
86	0x3e5895ca	0.2115089
87	0x3db01fcf	0.08599817
88	0x3c9670ff	0.018364428
89	0x3e191d49	0.14952578
90	0x3d2fd9bd	0.04293226
91	0x3e4e7ab0	0.20163989
92	0x3e148db5	0.14507182
93	0xbc8d9cd7	-0.017286701
94	0x3e248f32	0.1607025
95	0x3e59982d	0.21249457
96	0xbc8cddbe	-0.017195579
97	0xbda6499c	-0.081195086
98	0x3e5fbbc7	0.21848975
99	0xbd824bcd	-0.06362114
100	0xbc8757d6	-0.016521376
101	0xbd365ea2	-0.044523843
102	0x3e3af112	0.18256024
103	0x3cc838d0	0.024441153
104	0x3decbd97	0.11559599
105	0x3d1f023c	0.03882049
106	0xbd8cf026	-0.06881742
107	0xbc0bb8df	-0.008527963
108	0x3e82b27d	0.255268
109	0xbdab1a0b	-0.08354577
110	0xbe0bce60	-0.13652945
111	0x3e9e3864	0.30902398
112	0x3cff619a	0.03117447
113	0xbe8906b7	-0.26762936
114	0x3e9a6caa	0.3016103
115	0xbe7d70c8	-0.24750054
116	0xbe64125d	-0.2227263
117	0xbbc086fc	-0.0058754664
118	0x3d4d78b0	0.050163925
119	0xbb9e96fd	-0.0048397765
120	0x3e5f10e8	0.21783793
121	0xbe79d602	-0.24398044
122	0xbdba394f	-0.09092962
123	0x3e6deefe	0.232357
124	0x3d8fb2ae	0.07016502
125	0xbe2af2f1	-0.16694237
126	0x3e4092cf	0.18806003
127	0xbe35e34e	-0.17762491
128	0x3cdc746b	0.026910981
129	0x3e85564d	0.26042405
130	0xbe80995c	-0.25117004
131	0xbda5b705	-0.08091549
132	0x3dd381fa	0.103275254
133	0x3d9681c6	0.07348971
134	0xbbd734a6	-0.0065675555
135	0xbeb74772	-0.35796696
136	0x3dda07d8	0.10646027
137	0x3d1c8a44	0.038217798
138	0xbe9f33ec	-0.310943
139	0xbe2694d9	-0.16267718
140	0x3dc5db2d	0.09660945
141	0x3decd689	0.11564357
142	0x3e15318e	0.14569685
143	0x3e61f78e	0.22067091
144	0x3be6b2f4	0.007040376
145	0x3e518286	0.20459947
146	0x3ec1583b	0.37762627
147	0x3d3a15db	0.045431
148	0xbcfb3956	-0.030666988
149	0x3e9924ff	0.29911038
150	0x3c3dbaa7	0.011580146
151	0x3d042a57	0.03226694
152	0x3ebfb33d	0.37441435
153	0xbe9dd03f	-0.30822942
154	0xbc922e2f	-0.017844288
155	0x3d2bb363	0.041919123
156	0xbe5f3b96	-0.21800074
157	0xbd89efa5	-0.06735162
158	0x3e152fa1	0.1456895
159	0xbe377fc8	-0.17919838
160	0xbe2445eb	-0.16042297
161	0x3c915301	0.017739775
162	0xbe47e579	-0.1952113
163	0xbe876fcf	-0.2645249
164	0xbd42ff9b	-0.047607046
165	0x3e61547e	0.22004887
166	0xbe1fd549	-0.15608706
167	0xbd86fdc1	-0.065913685
168	0xbd7fe94a	-0.06247834
169	0xbe86809d	-0.2627
170	0x3dc30c67	0.0952385
171	0x3dec3b4f	0.1153475
172	0x3e3b61a6	0.18298969
173	0xbdf8506f	-0.121247165
174	0x3e266c88	0.16252339
175	0x3d7002a1	0.058596257
176	0x3e663a83	0.22483258
177	0x3eacce8e	0.3375134
178	0xbe057cd7	-0.13035904
179	0x3d1d8ac9	0.038462434
180	0xbdc95251	-0.09830154
181	0x3e23d21b	0.15998118
182	0xbdde7afa	-0.108633
183	0x3e7f2dd9	0.24919833
184	0xbe862c9c	-0.2620591
185	0x3c8f45c0	0.017489314
186	0x3dbc5649	0.09196145
187	0xbe38c372	-0.18043306
188	0xbe1260c1	-0.14294721
189	0x3d8326b7	0.06403869
190	0xbd344ef3	-0.044020604
191	0x3d85343a	0.06504102
192	0xbc7d8984	-0.015474681
193	0x3de6513f	0.11245965
194	0xbe0097c2	-0.12557891
195	0x3d888d26	0.06667547
196	0x3d80dffd	0.062927224
197	0x3d765c33	0.06014652
198	0x3de6ca1b	0.11269017
199	0xbe3a2dff	-0.18181609
200	0x3dabe68c	0.08393583
201	0x3d2e1fff	0.042510983
202	0xbe16a2f1	-0.14710595
203	0xbe0bf333	-0.13666992
204	0xbdff1dcf	-0.124568574
205	0x3dcf1ed7	0.10113304
206	0x3d8c20dc	0.06842205
207	0xbe1096af	-0.14119981
208	0xbdbf2a71	-0.09334267
209	0x3e8aeb0d	0.27132455
210	0x3d55021a	0.052003957
211	0xbde30b9b	-0.11086198
212	0xbb37485e	-0.0027966718
213	0x3bdebc75	0.006797368
214	0x3c8de972	0.01732323
215	0x3d91a95f	0.07112383
216	0xbe458905	-0.1929055
217	0xbdd0287b	-0.10163971
218	0x3e2e1d98	0.17003477
219	0x3e4f88f4	0.20267087
220	0x3d1e120f	0.03859144
221	0x3e4e78f1	0.20163323
222	0x3d563a01	0.05230141
223	0x3d0e41ea	0.03473083
224	0x3daffcfc	0.08593175
225	0xbe285666	-0.16439208
226	0xbe66df43	-0.22546105
227	0x3d9698b1	0.07353342
228	0x3db1e4ea	0.0868624
229	0xbd2eb1b3	-0.042649936
230	0x3ca84a27	0.020543171
231	0x3e293fb3	0.16528206
232	0xbe6ff53a	-0.2343339
233	0xbe85dc7c	-0.2614478
234	0xbdde3222	-0.10849406
235	0x3dff7add	0.12474606
236	0xbe4d6ecd	-0.20061798
237	0x3e3d82f8	0.18506992
238	0x3e01d75d	0.12679811
239	0xbe10247c	-0.14076418
240	0xbda399fb	-0.07988354
241	0x3d9d365c	0.07676384
242	0xbc282638	-0.010263018
243	0xbcfff15f	-0.031243024
244	0xb9f9ac52	-0.0004762137
245	0x3e17f26b	0.14838569
246	0x3e713ec2	0.23559096
247	0x3e68bb53	0.22727709
248	0x3cbcc8ad	0.023044908
249	0x3e6e3f0f	0.23266242
250	0x3c297916	0.010343811
251	0xbe17b963	-0.14816813
252	0x3d3efe16	0.046629034
253	0xbe0f0989	-0.13968481
254	0xbe572be8	-0.21012843
255	0xbdeea2be	-0.11652134

conv1.bias f4 [10]
0	0xbb3a8d07	-0.0028465407
1	0xbdb676d3	-0.08909383
2	0xbe4ecfe5	-0.20196493
3	0x3d1fb33f	0.0389893
4	0xbe18d7b8	-0.1492604
5	0x3e21848d	0.1577322
6	0xbd7ce540	-0.061742067
7	0xbdb6a770	-0.08918655
8	0xbdf799e3	-0.120898984
9	0xbe04d4b4	-0.12971765

conv2.weight f4 [15, 10, 6, 6]
0	0x3d9e1496	0.0771877
1	0x3c4496a2	0.011998804
2	0xbc1a17c8	-0.009405084
3	0xbd1444c6	-0.0361984
4	0x3d1a5bc1	0.03768516
5	0x3b4b6e08	0.0031040926
6	0xbd4310e7	-0.04762354
7	0x3d06d034	0.0329134
8	0x3cf60c3b	0.030035129
9	0x3d37e3ca	0.04489497
10	0x3d75c2f0	0.06000036
11	0x3d742664	0.059606925
12	0xbde7f1ad	-0.11325393
13	0x3c82a097	0.015945716
14	0x3c486dfc	0.012233254
15	0x3d17e4b9	0.03708336
16	0x3cdb6dff	0.026785849
17	0xbc43b3bf	-0.01194471
18	0xbd06b15d	-0.03288399
19	0xbd0cf679	-0.034414742
20	0xbc159865	-0.009130572
21	0x3d9c6526	0.0763648
22	0x3c9a6489	0.018846767
23	0xbc2612f6	-0.010136357
24	0xbccb1f41	-0.024795176
25	0xbc195930	-0.009359643
26	0x3d9f3e2b	0.077755295
27	0x3cbae694	0.022815026
28	0x3cf3c7eb	0.029758414
29	0x3d05ca89	0.032663856
30	0xbe03bfc3	-0.1286612
31	0xbda2fc08	-0.079582274
32	0xbd200888	-0.039070636
33	0xbd373aa4	-0.04473366
34	0xbd9cedb6	-0.07662527
35	0xbd493092	-0.049118586
36	0x3e359753	0.17733507
37	0x3e00746e	0.12544414
38	0x3ddf243d	0.10895584
39	0xbd10f64e	-0.035391144
40	0x3c92354c	0.01784768
41	0x3d26e885	0.04074909
42	0x3d59ce69	0.053175364
43	0x3dd883ea	0.105720356
44	0x3dafbbb5	0.08580724
45	0xbc256eb2	-0.010097193
46	0xbc6ef323	-0.0145843355
47	0x3c88f7c8	0.016719714
48	0x3d6cecb8	0.05784294
49	0xbd2d7c21	-0.042354707
50	0xbc5cbb81	-0.013472439
51	0x3cb2c359	0.021821665
52	0x3d6bfa5e	0.057611816
53	0x3ddbc87b	0.10731598
54	0xbccfa833	-0.025348758
55	0xbdbcd962	-0.0922115
56	0xbd686dd5	-0.05674537
57	0xbd02bbcf	-0.03191739
58	0xbc803374	-0.015649535
59	0x3d810703	0.063001655
60	0x3da5c2a9	0.08093769
61	0x3c3e7f7f	0.011627077
62	0xbdbdf414	-0.0927507
63	0xbe073590	-0.13204026
64	0xbe028c23	-0.1274877
65	0xbcb7b8da	-0.022427011
66	0x3d1f3d82	0.038877018
67	0xbd22b6e7	-0.03972521
68	0xbdc8fe0d	-0.09814081
69	0xbde66dde	-0.11251424
70	0xbe5f0a37	-0.2178124
71	0xbdb5d179	-0.08877844
72	0x3e813ef6	0.25243348
73	0x3e1772dc	0.14789909
74	0x3dba8f99	0.0910942
75	0xbb50c3a2	-0.0031854887
76	0xbd8ee710	-0.069776654
77	0xbdadcf51	-0.08486808
78	0x3d9d9749	0.07694871
79	0x3e094137	0.13403784
80	0x3dab5de5	0.08367518
81	0xbd7ec4f9	-0.062199567
82	0xbda449fe	-0.080219254
83	0xbdc536a7	-0.09629565
84	0x3ce241db	0.027619293
85	0x3d385bcc	0.04500942
86	0x3b0fa42c	0.0021917922
87	0xbddf98cc	-0.109178156
88	0x3c84f812	0.01623157
89	0xbd71f408	-0.059070617
90	0xbce12c43	-0.027486926
91	0xbd4515e9	-0.0481166
92	0xbe46d016	-0.19415316
93	0xbe1047d4	-0.140899
94	0xbd84b5b3	-0.06479969
95	0x3d9ebf2a	0.077513054
96	0x3d883325	0.0665038
97	0xbdcfa487	-0.10138803
98	0xbe0dc88f	-0.13846038
99	0xbda8fbad	-0.08251128
100	0xbd591382	-0.05299712
101	0xbb764fba	-0.0037584142
102	0x3e2551d2	0.16144493
103	0x3d46fb09	0.04857925
104	0xbc604eaf	-0.013690635
105	0xbdf7f91e	-0.12108062
106	0xbe63ae7d	-0.22234531
107	0x3c5f28a6	0.013620531
108	0x3e56ae1d	0.20964856
109	0x3e3eb738	0.1862458
110	0x3d402777	0.046912637
111	0xbbebc3a4	-0.007194953
112	0xbc45b8b9	-0.012067967
113	0xbbad71c4	-0.005293103
114	0x3dd9f7ee	0.10642992
115	0x3dabc55a	0.08387251
116	0x3d3f586b	0.04671518
117	0x3d9b4955	0.07582346
118	0x3bc64145	0.006050261
119	0x3c1c1776	0.009527078
120	0x3da0acd7	0.078454666
121	0xbb984eab	-0.00464805
122	0xbb346d40	-0.0027530938
123	0x3cf5ae1b	0.029990247
124	0x3c95cbe0	0.018285692
125	0x3d143e1e	0.036192052
126	0xbd16edf2	-0.036848016
127	0x3cd9da1f	0.026593266
128	0xbbf98e22	-0.0076158205
129	0x3d773c09	0.06035999
130	0x3be7171c	0.0070523154
131	0xbc985631	-0.018595787
132	0xbcbe84e7	-0.023256732
133	0xbd6cbf07	-0.057799365
134	0x3aaeca7e	0.0013335494
135	0x3cc82b0b	0.024434587
136	0xbc2f19a8	-0.010687269
137	0xbd97900a	-0.0740052
138	0xbd28f79f	-0.041251775
139	0xbde94a44	-0.11391118
140	0xbe046f4c	-0.12933081
141	0xbe280a59	-0.16410197
142	0xbe257440	-0.16157627
143	0xbe0009df	-0.12503766
144	0x3e2cd041	0.16876318
145	0x3e1bbb09	0.15208067
146	0x3df28f47	0.11843734
147	0x3cf2897b	0.029606571
148	0xbd4a2ac7	-0.049357202
149	0xbd905519	-0.07047481
150	0x3c7e0b54	0.0155056305
151	0x3d99515f	0.074862234
152	0x3df48b91	0.11940683
153	0xbd264dd8	-0.04060158
154	0xbd7364ff	-0.05942249
155	0xbdf1c7a5	-0.11805657
156	0x3d0d0354	0.034427002
157	0xbbe88a45	-0.007096561
158	0xbd2c5884	-0.042076603
159	0xbdd6ddd2	-0.104915276
160	0x3cb3a3a9	0.021928625
161	0x3c403f0e	0.011733783
162	0x3ca670ba	0.020317424
163	0xbb8b0ada	-0.004243237
164	0xbd879427	-0.06620055
165	0x3b8cc63c	0.0042960923
166	0x3d7b8eb4	0.06141539
167	0x3dc6ea17	0.09712618
168	0x3d25a1d6	0.040437542
169	0xbd5f5877	-0.054527726
170	0xbce58a46	-0.028020035
171	0xbd130a5e	-0.03589856
172	0x3cdb4b1f	0.026769219
173	0x3dd2216e	0.102602825
174	0x3e00527d	0.12531467
175	0x3c5eaafe	0.013590572
176	0x3c9d9008	0.019233719
177	0xbe01cc5c	-0.12675613
178	0xbda522ea	-0.080633
179	0xbd12ff64	-0.03588809
180	0xbe60d722	-0.21957067
181	0xbe8d97ac	-0.2765478
182	0xbe8b3126	-0.27185935
183	0xbe15533b	-0.14582531
184	0xbe2b22c8	-0.16712487
185	0xbe0ed992	-0.13950184
186	0xbe1fe067	-0.15612946
187	0xbe11059a	-0.14162293
188	0xbe5ff56f	-0.21870969
189	0xbe280b36	-0.16410527
190	0xbdca23d4	-0.09870115
191	0xbd98f8c0	-0.0746932
192	0xbe05b810	-0.13058496
193	0xbde4f37d	-0.11179254
194	0xbe0335f2	-0.12813547
195	0xbd0c2949	-0.03421906
196	0xbd3a12b2	-0.045427985
197	0xbc92bb0d	-0.017911458
198	0xbd37f6ab	-0.044912975
199	0xbdb41214	-0.08792511
200	0xbda32828	-0.079666436
201	0xbbd1a14d	-0.0063974024
202	0x3daeee67	0.085415654
203	0xbc491e31	-0.012275265
204	0xbda1e2d1	-0.0790459
205	0x3d690d3c	0.056897387
206	0xbd56d997	-0.052453604
207	0xbd969e96	-0.073544666
208	0x3cbbb08c	0.022911333
209	0x3d25c983	0.04047538
210	0xbe63bd6f	-0.22240232
211	0xbe4d4195	-0.20044549
212	0xbe1ddfd5	-0.15417416
213	0xbdc0bdcb	-0.094112
214	0x3b2eca3d	0.0026670836
215	0x3d376c3c	0.044780955
216	0xbdc0d113	-0.09414878
217	0xbdab292a	-0.08357461
218	0xbd17d93d	-0.03707241
219	0xbe2f4359	-0.17115535
220	0xbdccc955	-0.099993385
221	0xbde623c1	-0.11237288
222	0xbde1e15f	-0.11029314
223	0xbd8166b7	-0.063184194
224	0xbd0f17c4	-0.034934774
225	0xbd8ee563	-0.06977346
226	0xbda18138	-0.07885975
227	0xbe1a4799	-0.15066375
228	0xbd67bc3b	-0.056575995
229	0xbd1076f7	-0.035269704
230	0xbe185fd9	-0.14880313
231	0xbd6003aa	-0.054690994
232	0xbd854e09	-0.06509025
233	0xbdacd35a	-0.084387496
234	0xbca9f7fb	-0.02074813
235	0xbe0fffea	-0.14062467
236	0xbdf2f2d7	-0.11862724
237	0xbdcd38e0	-0.10020614
238	0xbdf12246	-0.11774115
239	0xbd1b7de1	-0.037961844
240	0x3d655e26	0.05599799
241	0xbd186b6b	-0.037211817
242	0xbd0f256c	-0.034947798
243	0xbcb6bf0a	-0.022307891
244	0xba1a57f6	-0.0005887741
245	0x3df41c55	0.119194664
246	0x3e32f408	0.17475903
247	0x3dbf97f5	0.093551554
248	0x3dad2e14	0.08456054
249	0x3d55474c	0.052069947
250	0x3dd9a5fb	0.106273614
251	0x3deb48e3	0.114885114
252	0x3d2ed22a	0.042680897
253	0x3d98fc7f	0.07470035
254	0x3d052967	0.032510187
255	0x3c598a8f	0.013277664

conv2.bias f4 [15]
0	0xba559d37	-0.0008148732
1	0xbe8ac16d	-0.27100697
2	0xbc04fa64	-0.008116338
3	0xbd1ba1ff	-0.03799629
4	0xbdee0755	-0.11622492
5	0xbe5e80b6	-0.21728787
6	0xbea73cea	-0.3266366
7	0xbe25edbb	-0.16203968
8	0xbd1a36a3	-0.037649762
9	0xbe907aa4	-0.28218567
10	0x3d90b02e	0.070648536
11	0xbe330806	-0.1748353
12	0xbd6715c1	-0.05641723
13	0xbd85ac02	-0.065269485
14	0x3e07889c	0.13235706

conv3.weight f4 [20, 15, 3, 3]
0	0x3da9ca1a	0.08290501
1	0xbd6382b6	-0.055544578
2	0xbd793795	-0.060844023
3	0x3de47915	0.11155907
4	0x3cd5c2c9	0.026093857
5	0xbd821028	-0.06350738
6	0x3dbe4a66	0.09291534
7	0x3e7ec054	0.24878055
8	0x3e3eba37	0.18625723
9	0x3ed0af59	0.4075878
10	0x3eadbffd	0.33935538
11	0x3e43c655	0.19118626
12	0x3ea8bdfc	0.32957447
13	0x3e000cff	0.12504958
14	0x3d0f125d	0.034929622
15	0x3e6568cb	0.22403257
16	0x3e0951cb	0.13410108
17	0x3bd58cb3	0.006517017
18	0x3d883025	0.06649808
19	0x3dc8ca08	0.098041594
20	0xbdad9470	-0.08475578
21	0x3db6869e	0.08912395
22	0xbd817923	-0.06321933
23	0x3d2dcc03	0.04243089
24	0xbd17d716	-0.037070356
25	0xbe0154db	-0.12630026
26	0x3d16d2e0	0.0368222
27	0xbe20b9d7	-0.15695892
28	0xbe103ff8	-0.14086902
29	0xbe75a5b0	-0.23988986
30	0x3cc4a70d	0.024005437
31	0x3d969b33	0.07353821
32	0xbd537d47	-0.051633146
33	0xbbb07a76	-0.005385692
34	0x3dd7d0d6	0.10537879
35	0x3e20a77a	0.15688887
36	0xbaba5593	-0.0014216177
37	0x3ca5427e	0.020173308
38	0x3d8895f1	0.06669224
39	0x3c024ac6	0.007952398
40	0x3cb7a73b	0.022418609
41	0xbd7c10ec	-0.061539575
42	0x3ccedd05	0.025251875
43	0xbdcede79	-0.10101027
44	0xbda92662	-0.08259274
45	0xbe5e15d2	-0.21688011
46	0xbcf99dcc	-0.030470751
47	0xbd900692	-0.07032503
48	0xbe0696a7	-0.13143407
49	0xbdb46728	-0.08808738
50	0xbe6e6364	-0.23280102
51	0xbe75035e	-0.23927066
52	0xbe84db5a	-0.25948602
53	0xbe940e1c	-0.28917015
54	0xbd9654d6	-0.073404
55	0xbd29f79c	-0.041495904
56	0xbde9f2b3	-0.11423244
57	0xbd179a45	-0.037012357
58	0x3d4e9589	0.050435577
59	0xbe3ee4a8	-0.18641913
60	0xbd0244e7	-0.03180399
61	0x3d18cbe7	0.03730383
62	0xbe2e7493	-0.17036657
63	0xbdaa1b84	-0.083060294
64	0xbde76ce8	-0.11300069
65	0xbdd770ec	-0.10519585
66	0xbc8d7c0a	-0.01727106
67	0x3e2879ab	0.16452663
68	0x3e285d42	0.16441825
69	0x3e6db401	0.23213197
70	0x3ebb7697	0.36613914
71	0x3ed1bfea	0.4096673
72	0x3bf3d186	0.0074407486
73	0xbdf721dc	-0.12067005
74	0xbe006be2	-0.12541154
75	0x3d840852	0.064468995
76	0x3d84bfe4	0.06481913
77	0x3c6a20d4	0.014290053
78	0x3df87f70	0.12133682
79	0x3d604180	0.054749966
80	0xbb965f65	-0.0045890086
81	0x3e347e34	0.17626268
82	0x3e33e46c	0.17567605
83	0x3d49445d	0.049137462
84	0xbd188358	-0.037234634
85	0x3d14471e	0.036200635
86	0xbdc7a8ba	-0.09748979
87	0xba8e3e74	-0.0010852353
88	0x3b83a71e	0.0040177247
89	0xbe4e9e0d	-0.20177479
90	0x3e3c7078	0.18402278
91	0x3d5e9fe6	0.05435171
92	0xbdc17ccf	-0.094476335
93	0x3e0d9bb7	0.13828932
94	0xba9aff03	-0.0011825267
95	0xbda93fab	-0.08264097
96	0x3e525120	0.20538759
97	0x3deb8417	0.114998035
98	0xbc8e0112	-0.017334495
99	0xbdb4a25a	-0.088200286
100	0xbb8b637b	-0.0042538024
101	0xbe1dacd5	-0.15397961
102	0x3dc98e5d	0.09841607
103	0xbd3ee40f	-0.046604212
104	0xbcaa856c	-0.020815574
105	0x3cad5bfa	0.021162022
106	0x3e1a4605	0.15065773
107	0x3dad2f4b	0.08456286
108	0x3d0d295a	0.034463264
109	0x3da7a61a	0.08185978
110	0xbcc2506e	-0.023719992
111	0x3d1fec1d	0.039043535
112	0x3e18c646	0.14919385
113	0x3c7ad0fc	0.015308615
114	0xbd75ae2c	-0.059980556
115	0x3c973d68	0.018461898
116	0x3b96f6e7	0.00460707
117	0xbe776827	-0.24160825
118	0xbe9a13a8	-0.30093122
119	0xbe6bb2d4	-0.23017436
120	0xbe64b600	-0.22335052
121	0xbd82d19d	-0.06387637
122	0xbe094617	-0.13405643
123	0xbd80df43	-0.06292584
124	0x3b932f1b	0.0044916994
125	0xbadf0cd7	-0.0017017376
126	0x3e05692f	0.13028406
127	0x3e6b5bf6	0.22984299
128	0x3e532d5d	0.20622773
129	0xbdba5c20	-0.09099603
130	0xbdb6c2fd	-0.0892391
131	0x3d4d00d4	0.050049618
132	0xbe05c02b	-0.13061588
133	0xbe736ecf	-0.23772739
134	0xbe044076	-0.12915215
135	0xbc260f93	-0.010135549
136	0xbd02898a	-0.03186945
137	0xbd41da7d	-0.047327507
138	0x3d705beb	0.05868141
139	0x3d4aa720	0.04947579
140	0xbd371ce8	-0.0447053
141	0x3e3e91c1	0.18610288
142	0x3d3b750d	0.045765925
143	0xbcba0574	-0.022707678
144	0xbcdbcb13	-0.026830232
145	0x3a741083	0.0009310322
146	0x3d0f9ae7	0.035059836
147	0xbcc7fe74	-0.024413325
148	0xbdc0dac7	-0.094167285
149	0x3d937e21	0.072017916
150	0x3c914b7d	0.01773619
151	0xbda2e680	-0.07954121
152	0x3da4b963	0.08043172
153	0xbdaa3e0c	-0.08312616
154	0xbcad4993	-0.021153247
155	0x3d6d9f36	0.058013164
156	0xbe0a442b	-0.13502567
157	0xbe2312d9	-0.15925159
158	0x3ced7f40	0.028991342
159	0xbe15c4ee	-0.14625904
160	0xbcd7ae39	-0.026328193
161	0xbe08267d	-0.13295932
162	0xbd62934e	-0.055316262
163	0xbd6ffdb3	-0.058591556
164	0xbe0346b5	-0.12819941
165	0xbcc06a4e	-0.02348819
166	0xbd80a291	-0.06281007
167	0xbc097e45	-0.008391921
168	0xbce55d5b	-0.027998617
169	0xbe0158ee	-0.1263158
170	0xbdd5152c	-0.10404429
171	0x3da8fdba	0.082515195
172	0x3e506323	0.20350318
173	0x3de1403f	0.10998582
174	0x3dd32898	0.10310477
175	0x3e302115	0.1720012
176	0x3e3ccb0e	0.18436834
177	0xbc12a734	-0.008950997
178	0x3d5d635c	0.054049835
179	0x3e39e682	0.18154338
180	0xbe1debc8	-0.15421975
181	0xbe7192d1	-0.23591162
182	0xbe2594e4	-0.16170079
183	0xbc0738d6	-0.008253297
184	0xbdcc8a82	-0.09987356
185	0xbd952176	-0.07281773
186	0xbce1a049	-0.02754225
187	0xbd759fe7	-0.059966948
188	0xbda3606a	-0.07977374
189	0xbd364d80	-0.044507504
190	0xbe5dc070	-0.2165544
191	0xbb9de3cd	-0.0048184157
192	0x3da0cc4f	0.07851469
193	0x3d39e079	0.04538009
194	0x3cc174e8	0.023615316
195	0x3d2fd8b6	0.04293128
196	0xbb53859a	-0.0032275678
197	0xbb8f8164	-0.0043794382
198	0x3e0f5151	0.13995863
199	0x3d5d8522	0.054082043
200	0x3d79d47a	0.06099365
201	0xbd2be2e5	-0.04196443
202	0x3d568acb	0.052378457
203	0x3de313a8	0.110877335
204	0x3d8def95	0.06930462
205	0x3dfd89eb	0.123798214
206	0x3df7f7ab	0.12107786
207	0xbdbd9c6c	-0.09258351
208	0x3dca105e	0.09866403
209	0xbd894710	-0.06703007
210	0xbd7151ec	-0.058916017
211	0xbb341d8b	-0.002748343
212	0xbd1b6c8c	-0.037945315
213	0x3da3744c	0.07981166
214	0x3d50143a	0.05080054
215	0x3d5e8c05	0.05433275
216	0xbe380fda	-0.17974797
217	0xbd1f1802	-0.038841255
218	0xbc90f590	-0.017695218
219	0xbdfb3612	-0.122661725
220	0x3cac7099	0.021049784
221	0xbdb0d8e0	-0.086351156
222	0xbe2019d2	-0.1563485
223	0x3d331469	0.043720637
224	0x3c65546f	0.013997181
225	0xbddfb2c0	-0.10922766
226	0xbc8e26e9	-0.017352538
227	0xbd031380	-0.03200102
228	0x3c9a5544	0.018839486
229	0xbd6b56d6	-0.05745586
230	0xbe00532c	-0.12531728
231	0xbe110103	-0.14160542
232	0xbdf7aa45	-0.12093023
233	0x3cb67cc7	0.022276295
234	0x3de6654a	0.11249788
235	0x3d36b063	0.04460181
236	0xbdee5062	-0.116364256
237	0x3daf393b	0.08555838
238	0x3dbbdf54	0.09173456
239	0xbd3aba4a	-0.045587815
240	0x3e01bd8f	0.12669967
241	0x3c268439	0.01016336
242	0x3cbd54d8	0.023111746
243	0xbd4fcfdd	-0.050735343
244	0xbd816694	-0.06318393
245	0xbd8c9c5e	-0.06865762
246	0xbbe91d88	-0.007114116
247	0x3c87e831	0.01659021
248	0xbbdf6e8b	-0.0068185977
249	0xbc16c388	-0.009201892
250	0xbcd3e6d1	-0.025866898
251	0xbcb49227	-0.022042347
252	0xbe3e2b31	-0.18571164
253	0xbc7f1dff	-0.0155711165
254	0xbe22e05f	-0.15905903
255	0xbe16d3ac	-0.14729184

conv3.bias f4 [20]
0	0xbe1e5c9d	-0.15465017
1	0xbecddc9c	-0.40207374
2	0xbeaf579c	-0.34246528
3	0xbe97a783	-0.2961999
4	0xbe95981c	-0.29217613
5	0xbec87638	-0.39152694
6	0xbded059f	-0.11573338
7	0xbec32bea	-0.3811944
8	0xbeeeecbd	-0.46664992
9	0x3dbfaea1	0.0935948
10	0xbef4ee0e	-0.4783787
11	0xbeed35f7	-0.46330234
12	0xbea0a404	-0.31375134
13	0xbe92e76d	-0.2869219
14	0xbb8e7791	-0.0043477495
15	0xbe831306	-0.2560045
16	0xbe9f7582	-0.3114434
17	0xbe096ea8	-0.13421118
18	0xbe1c2781	-0.15249445
19	0x3d3daa72	0.046305127

linear1.weight f4 [100, 720]
0	0xbdc384d2	-0.09546818
1	0x3dafba9f	0.08580517
2	0x3dc47427	0.09592467
3	0x3e55f07b	0.20892517
4	0x3d3def51	0.046370808
5	0xbd33b25e	-0.043871276
6	0x3ea5d8f9	0.323921
7	0x3e15611c	0.14587826
8	0x3e635ed4	0.22204143
9	0x3e8d4ea8	0.27599072
10	0x3e0202d8	0.12696397
11	0x3e23a5ef	0.15981267
12	0x3e498719	0.19680442
13	0x3d23dcdd	0.040005554
14	0x3e12fed0	0.14355016
15	0x3e775689	0.24154104
16	0x3e953760	0.2914381
17	0x3db5f1c7	0.08884006
18	0x3d764b5b	0.06013046
19	0x3d5ad40d	0.053424884
20	0x3d04786a	0.0323414
21	0x3df68da2	0.12038733
22	0x3cc4c173	0.024018025
23	0xbd8085f1	-0.06275547
24	0x3d5cbbaa	0.053889908
25	0x3d25ccdd	0.040478576
26	0x3bc3713e	0.0059644273
27	0x3ca4feb9	0.020140992
28	0xbda74a1e	-0.081684336
29	0x3d22e78b	0.039771598
30	0x3c8deb0c	0.017323993
31	0x3d774c24	0.060375348
32	0x3d2184f0	0.03943342
33	0x3d9acf2f	0.075590484
34	0xbd938cb6	-0.07204573
35	0xba24583b	-0.0006269251
36	0xbdd5e6d8	-0.104444206
37	0xbe22b07a	-0.15887633
38	0xbded62c5	-0.115911044
39	0xbc6e0455	-0.0145274
40	0xbd868d40	-0.0656991
41	0xbe375eae	-0.17907211
42	0xbe484f66	-0.19561538
43	0xbe22fd47	-0.1591693
44	0xbd342c69	-0.043987665
45	0x3d9b4b24	0.07582691
46	0xbcbb702e	-0.02288064
47	0xbe0e5e42	-0.13903144
48	0xbe3554c8	-0.17708123
49	0xbcc02b4d	-0.023458147
50	0xbd62b684	-0.05534984
51	0xbd19b97f	-0.03753042
52	0x3c2b38e4	0.0104505755
53	0x3cae9920	0.02131325
54	0xbdf49ca2	-0.11943938
55	0x3d98a9a1	0.07454229
56	0x3c4a20ba	0.012336904
57	0x3c9da882	0.01924539
58	0x3da08503	0.0783787
59	0x3e04e2de	0.12977168
60	0xbe067621	-0.13131
61	0xbc748cd7	-0.014926157
62	0xbca2aacb	-0.019856831
63	0xbda13010	-0.07870495
64	0x3be2fcf5	0.0069271275
65	0x3d9065d1	0.0705067
66	0xbe08dbe9	-0.13365139
67	0xbde27cd4	-0.11058965
68	0xbd1cbcd6	-0.038266025
69	0xbd901762	-0.0703571
70	0xbe2b7341	-0.16743185
71	0xbdc6ed1f	-0.09713196
72	0x3db513bb	0.08841654
73	0x3e154dc3	0.14580445
74	0xbe056966	-0.13028488
75	0xbd70f3cf	-0.058826264
76	0x3d893cb2	0.0670103
77	0x3e23b405	0.15986641
78	0x3e8f46a8	0.27983594
79	0x3e734839	0.2375802
80	0x3d8726f6	0.06599228
81	0x3deef0fd	0.116670586
82	0x3dd006eb	0.101575695
83	0x3e2c992f	0.1685531
84	0x3e522fde	0.20526072
85	0x3e29f12e	0.16595909
86	0x3e27d2ac	0.16388959
87	0x3e5036e7	0.20333444
88	0x3e331f3c	0.17492384
89	0x3e2deffd	0.1698608
90	0x3e8838ff	0.26605985
91	0xbb452e24	-0.0030087316
92	0x3de95cd8	0.11394662
93	0x3e4ce251	0.20008208
94	0x3dde07d9	0.108413406
95	0x3cf2b3bb	0.029626718
96	0x3e81f1bd	0.25379744
97	0xbc6672af	-0.014065429
98	0xbd539cca	-0.051663198
99	0xbd48111a	-0.048844434
100	0x3d76eb73	0.060283136
101	0x3cb9a9b7	0.022663934
102	0x3e3095ff	0.17244719
103	0xbdb5085c	-0.08839485
104	0xbe53c83a	-0.20681849
105	0xbe79ae93	-0.24383001
106	0xbda8ecdf	-0.082483046
107	0x3d12e454	0.035862282
108	0xbe495f6a	-0.19665304
109	0x3c7bd0d9	0.015369617
110	0x3db913e0	0.09036994
111	0x3ddb11a8	0.10696727
112	0x3c184567	0.009293891
113	0xbe4bef2a	-0.19915453
114	0x3e035378	0.1282481
115	0x3d203b36	0.039118968
116	0x3e3c9947	0.18417846
117	0x3e859b84	0.26095212
118	0x3db8da03	0.090259574
119	0x3dd8c1b4	0.10583821
120	0x3e4fc1eb	0.20288818
121	0x3dc3894b	0.09547671
122	0x3e38da63	0.18052058
123	0x3e84a90e	0.25910228
124	0x3e3add0b	0.18248384
125	0x3d20f46e	0.039295606
126	0x3d0a4496	0.033756815
127	0xba8a80f5	-0.0010566997
128	0x3d75e75c	0.060035095
129	0x3e06cb3d	0.13163467
130	0xbbb33f0e	-0.005470163
131	0x3d887d2e	0.06664501
132	0xbda8d367	-0.08243447
133	0x3aca4150	0.0015430842
134	0x3d85b711	0.06529058
135	0xbd15752c	-0.036488697
136	0xbd18a207	-0.037263896
137	0x3dee8ec2	0.11648323
138	0xbd99b1e7	-0.07504635
139	0xbd429f82	-0.0475154
140	0x3c7329f3	0.014841544
141	0x3d8946dc	0.067029685
142	0xbe23cbc9	-0.15995707
143	0xbe2db8ce	-0.16965029
144	0x3d1be23a	0.038057543
145	0xbde9ad62	-0.11410023
146	0xbe445faf	-0.19177125
147	0xbe56d0ba	-0.2097806
148	0x3caa66a6	0.0208009
149	0x3dcff6c1	0.101544864
150	0x3e18ffdd	0.14941354
151	0xbd692837	-0.056923117
152	0xbd857be6	-0.065177724
153	0x3d499870	0.04921764
154	0xbdc21874	-0.0947732
155	0x3d08b398	0.0333744
156	0x3e18d19e	0.14923713
157	0xbc4641e0	-0.012100667
158	0x3cbac68f	0.022799758
159	0x3d3ed6c2	0.046591528
160	0xbd1384a9	-0.036015186
161	0xbd7d79ee	-0.06188386
162	0x3e123c97	0.14280926
163	0xbc73eef5	-0.014888515
164	0xbd6e794a	-0.05822114
165	0x3e10f204	0.14154822
166	0xbde8fa14	-0.113758236
167	0x3ddb8024	0.107178
168	0x3e497c72	0.19676378
169	0xbdf54913	-0.119768284
170	0xbde42217	-0.111393146
171	0xbe02ee1a	-0.12786141
172	0xbdae182d	-0.08500705
173	0x3da569f2	0.08076848
174	0x3d8ad77e	0.06779383
175	0xbe3784aa	-0.17921701
176	0xbdb5b9ef	-0.08873355
177	0xbe31448d	-0.17311306
178	0x3c9968e3	0.018726772
179	0x3e5057b7	0.2034596
180	0xbe5449e5	-0.20731314
181	0x3e0cc2eb	0.1374623
182	0x3e1a0167	0.15039597
183	0x3ddf820a	0.10913475
184	0xbd936a75	-0.071980394
185	0xbdd5f236	-0.10446589
186	0x3e03924a	0.12848774
187	0xbc0e2023	-0.008674654
188	0x3e8168db	0.2527531
189	0x3e9184ec	0.28421724
190	0x3e00323c	0.12519163
191	0x3e468e8c	0.19390315
192	0x3e5280b3	0.20556907
193	0x3d3ddfe5	0.0463561
194	0x3e9066bf	0.2820339
195	0x3e630e13	0.22173338
196	0x3de78b57	0.11305874
197	0xbd969b1f	-0.07353806
198	0x3d479b3e	0.048732035
199	0x3b29e3dc	0.0025923168
200	0x3e805513	0.25064906
201	0x3e16f2bc	0.14741033
202	0x3d0a5acd	0.033778
203	0x3dd70d82	0.10500623
204	0xbda53c45	-0.08068136
205	0x3bf0fe09	0.007354502
206	0x3c9b1e2b	0.018935284
207	0x399e4ebe	0.00030194776
208	0xbda4e37d	-0.080512024
209	0x3d1d668f	0.038427886
210	0xbd42b8a6	-0.047539376
211	0xbd93f8ea	-0.07225211
212	0xbd13b05b	-0.036056858
213	0xbd947f81	-0.07250882
214	0xbe6dc89c	-0.23221058
215	0xbe0c90d8	-0.13727129
216	0x3d081101	0.03321934
217	0x3cef8651	0.029238852
218	0x3d100664	0.035162345
219	0x3e2124fc	0.15736765
220	0x3e3f7b9a	0.18699494
221	0x3e0d333f	0.1378908
222	0x3e23eeaa	0.16009012
223	0x3e5ecd96	0.21758112
224	0x3e0bba2f	0.13645242
225	0x3e4632dc	0.19355339
226	0x3dcb0d64	0.099146634
227	0x3db300cd	0.08740387
228	0x3e9cbd3c	0.30613124
229	0x3df3d4c9	0.1190582
230	0x3dd5d71e	0.10441421
231	0x3e8b7d1f	0.27243897
232	0x3e90fa28	0.28315854
233	0x3d0ee817	0.034889307
234	0x3e29a4be	0.1656675
235	0xbcbf4869	-0.023349958
236	0x3d42a521	0.04752076
237	0x3e168631	0.14699627
238	0x3d2fd81d	0.04293071
239	0xbd746a19	-0.059671495
240	0x3d6d3d9d	0.057920087
241	0xbc2961da	-0.010338271
242	0x3b73802c	0.0037155254
243	0x3d689f89	0.05679277
244	0x3b597ded	0.003318663
245	0x3d7b1347	0.06129768
246	0x3dab731d	0.083715655
247	0x3c67fa0e	0.014158739
248	0xbe65a8e8	-0.22427714
249	0xbc0a1bd4	-0.008429486
250	0x3ca56a69	0.020192342
251	0x3d23ca77	0.039988007
252	0x3d2e8c0e	0.042614035
253	0xbd0adcea	-0.033902086
254	0xbe059465	-0.1304489
255	0xbdd5ac13	-0.10433211

linear1.bias f4 [100]
0	0xbd8636ed	-0.06553445
1	0xbd8cfbd5	-0.06883971
2	0xbd4a0a46	-0.049326204
3	0xbd67bddb	-0.056577545
4	0xbd7d97e4	-0.061912432
5	0xbda4bdf7	-0.080440454
6	0xbe9bcf9e	-0.30431837
7	0xbce3be80	-0.027800798
8	0xbe78f805	-0.24313362
9	0x3e5cdc1a	0.21568337
10	0xbd5110e9	-0.051041517
11	0xbe0d9e80	-0.13829994
12	0x3e0e5b04	0.13901907
13	0xbce39139	-0.027779208
14	0x3d7fe929	0.06247822
15	0x3b28a0c7	0.0025730596
16	0xbd2cfc14	-0.042232588
17	0xbd8b15bc	-0.06791255
18	0xbcfdc2d0	-0.030976683
19	0x3cabf303	0.0209899
20	0xbd6436a5	-0.055716176
21	0xbe1c7116	-0.15277514
22	0xbce69d6e	-0.02815124
23	0xbd637b96	-0.055537783
24	0xbcdd1d3f	-0.026991485
25	0xbbd5e74b	-0.0065278164
26	0x3e49591d	0.196629
27	0xbdcf9145	-0.1013513
28	0x3dabba33	0.08385124
29	0xbced97a9	-0.029002981
30	0x3e8a20d7	0.2697818
31	0x3d363375	0.044482667
32	0xbd8d02cd	-0.068853
33	0xbdde7b2f	-0.10863339
34	0xbd1530f7	-0.03642365
35	0x3d91a930	0.07112348
36	0xbc3889b1	-0.011263297
37	0x3d9a311a	0.07528897
38	0xbe0a16d6	-0.13485274
39	0xbd15272a	-0.036414303
40	0xbe0d9135	-0.13824923
41	0xbda02d64	-0.078211576
42	0xbda158c6	-0.0787826
43	0xbd8ebcd2	-0.06969608
44	0xbdab11e7	-0.08353024
45	0x3e28af72	0.16473177
46	0x3c981991	0.018566879
47	0x3e88cbf1	0.26718095
48	0xbc736d9c	-0.014857676
49	0xbd99bcb5	-0.07506696
50	0xbd96d892	-0.07365526
51	0xbde99d96	-0.1140701
52	0xbcf8c116	-0.030365508
53	0x3e187ca4	0.14891297
54	0xbe3589b0	-0.17728305
55	0x3e0b368d	0.13595028
56	0xbdcd7527	-0.10032111
57	0xbcbb174b	-0.022838255
58	0x3ca0c455	0.019624868
59	0x3b90848e	0.004410333
60	0x3da16a8c	0.0788165
61	0x3b8915cd	0.004183507
62	0xbe14d91e	-0.14535949
63	0xbcbf0d0f	-0.023321657
64	0x3e76153d	0.2403154
65	0xbbe74b7b	-0.0070585585
66	0xbe3ce885	-0.18448074
67	0x3e30edf1	0.17278267
68	0x3e061535	0.13094027
69	0xbd09bbe7	-0.033626463
70	0xbe38fe3d	-0.18065734
71	0xbcf670c6	-0.030083071
72	0x3df671a0	0.12033391
73	0x3d8405a9	0.06446392
74	0xbe03cfd3	-0.12872247
75	0x3d26c601	0.040716175
76	0xbdafa08d	-0.085755445
77	0x3deb2ad3	0.114827774
78	0xbce25361	-0.027627649
79	0xbd34f9a7	-0.0441834
80	0xbdc5187f	-0.09623813
81	0xbd9700f0	-0.07373226
82	0xbc8bad2c	-0.017050348
83	0xbcf4b4d9	-0.029871391
84	0xbd23a729	-0.03995434
85	0xbd320beb	-0.043468397
86	0x3ed0c7d1	0.40777448
87	0xbd12d2a9	-0.035845432
88	0xbded267d	-0.11579607
89	0xbe34417f	-0.1760311
90	0x3e7e78a4	0.24850708
91	0xbe52f26b	-0.20600288
92	0xbdaab6a1	-0.08335615
93	0xbd540e7c	-0.051771626
94	0x3dde8a99	0.10866279
95	0xbd813610	-0.0630914
96	0x3dcc5d3b	0.0997872
97	0xbda5bd77	-0.08092778
98	0x3d2989eb	0.041391294
99	0x3e318a4a	0.1733791

linear2.weight f4 [20, 100]
0	0xbd8cfbb6	-0.068839476
1	0x3da0cd6b	0.0785168
2	0xbda08412	-0.078376904
3	0xbd05aa41	-0.03263307
4	0xbd2233b9	-0.039600108
5	0xbdcfc03c	-0.10144088
6	0xbca6ee29	-0.020377235
7	0xbe165c68	-0.14683688
8	0x3cc5bcf3	0.02413795
9	0xbea6b39c	-0.32558906
10	0x3bf2b18b	0.0074064187
11	0xbd82f7ba	-0.06394906
12	0xbe234ede	-0.15948054
13	0xbe3dd2ea	-0.18537489
14	0x3d708af8	0.05872628
15	0x3ae2141d	0.0017248426
16	0xbb56ba40	-0.0032764822
17	0x3d0186d1	0.03162271
18	0xbc433920	-0.011915475
19	0xbd2113e7	-0.03932562
20	0x3d9b9358	0.07596463
21	0x3e61b9b3	0.22043495
22	0xbdeaa739	-0.114576764
23	0x3cd55951	0.026043566
24	0xbd72c27d	-0.05926751
25	0xbdf68744	-0.120375186
26	0x3cd62525	0.026140759
27	0xbdf6665c	-0.12031242
28	0x3e1e23ff	0.15443419
29	0xbd1d9f40	-0.03848195
30	0xbe18cbf4	-0.14921552
31	0xbd2e85a9	-0.042607937
32	0x3da307d3	0.07960477
33	0xbd90cc3e	-0.07070206
34	0x3d5fb29d	0.0546137
35	0xbe041c91	-0.12901522
36	0xbd8d7c58	-0.06908482
37	0x3d515209	0.051103625
38	0xbdc58991	-0.09645379
39	0xbdc92903	-0.098222755
40	0xbdac19ce	-0.08403359
41	0x3db42263	0.08795621
42	0xbd76fc7a	-0.060299374
43	0xbe0066bc	-0.1253919
44	0x3baa1efa	0.005191681
45	0xbdd3f6e7	-0.10349827
46	0xbdd13ce1	-0.1021669
47	0xbc2b22b1	-0.010445283
48	0x3df547d5	0.119765915
49	0xbd07ab2d	-0.03312223
50	0x3caf103a	0.021370042
51	0xbe6cf083	-0.23138623
52	0xbc9e99fd	-0.019360537
53	0x3d6c0ba2	0.05762828
54	0xbc1bd9fe	-0.009512423
55	0xbd96cfc1	-0.07363845
56	0xbd9f814c	-0.07788333
57	0xbc43125c	-0.011906233
58	0xbdfbf332	-0.12302245
59	0xbc94586f	-0.018108575
60	0xbdb4abf3	-0.08821859
61	0x3ccf5169	0.025307374
62	0x3d258354	0.040408447
63	0x3d96ae62	0.0735748
64	0xbe5bef83	-0.21478085
65	0x3daf91a3	0.085727
66	0xbdbb2b1e	-0.09139083
67	0xbe67e356	-0.22645316
68	0xbe4b00f2	-0.1982458
69	0x3d912694	0.07087436
70	0xbdf29ca3	-0.11846282
71	0x3aa4b109	0.0012564968
72	0x3d82257c	0.06354806
73	0xbcab7521	-0.020929875
74	0x3b4cc83a	0.0031247274
75	0x3bd86ea6	0.006604987
76	0xbe16a9ac	-0.14713162
77	0xbdf8a4d7	-0.12140816
78	0xbc9b8373	-0.018983578
79	0xbc531cb3	-0.01288526
80	0xbd45b88c	-0.0482717
81	0xbd2069f2	-0.039163537
82	0x3ca6963e	0.020335313
83	0x3d9a5b47	0.07536941
84	0x3caa59a5	0.020794699
85	0x3c85499d	0.016270453
86	0xbe0e6ff9	-0.13909902
87	0xbe24c85a	-0.16092053
88	0x3d0583fe	0.03259658
89	0xbdd856ec	-0.10563454
90	0xbd81c8f8	-0.0633716
91	0xbd961a8f	-0.073292844
92	0x3d1f4fe5	0.038894553
93	0xbe0cafb2	-0.13738897
94	0xbd250c55	-0.040294964
95	0x3d5342c4	0.051577345
96	0xbdb58e63	-0.08865049
97	0x3de5442b	0.11194643
98	0xbdb4b7f1	-0.088241465
99	0xbdfdd125	-0.12393407
100	0xbd631300	-0.05543804
101	0xbda47f33	-0.08032074
102	0x3dc44fd5	0.09585539
103	0xbd895b85	-0.06706909
104	0xbd825345	-0.06363539
105	0xbd953a75	-0.072865404
106	0x3d66e5cf	0.056371506
107	0xbd76f1f9	-0.060289357
108	0x3dca13e6	0.098670766
109	0xbe1745d7	-0.14772736
110	0xbd348547	-0.044072416
111	0xbe258ce6	-0.1616703
112	0xbe0437f1	-0.12911965
113	0xbd634770	-0.05548805
114	0x3db9ff71	0.09081925
115	0xbc7900a5	-0.015197908
116	0x3d557ce2	0.05212105
117	0x3d997931	0.074938186
118	0xbcfa506a	-0.030555923
119	0x3cac9102	0.021065239
120	0xbdaba7a8	-0.08381587
121	0x3c168880	0.009187818
122	0x3d6f936a	0.058490194
123	0xbd4daee1	-0.050215606
124	0xbced3e94	-0.028960504
125	0x3d914aa9	0.070943184
126	0xbe5bdc0c	-0.2147066
127	0x3e0516fb	0.12997048
128	0x3cd0c573	0.025484776
129	0xba163500	-0.00057299435
130	0xbe06aa36	-0.13150868
131	0xbd270e11	-0.0407849
132	0x3e174376	0.14771828
133	0x3d73f2b1	0.05955762
134	0xbdb9f67f	-0.090802185
135	0x3bd965fa	0.006634471
136	0x3d947d7b	0.07250496
137	0x3d23e60b	0.040014308
138	0xbd23a6da	-0.039954044
139	0x3d7f7432	0.06236667
140	0x3d3a93de	0.045551173
141	0xbdf13e7f	-0.11779498
142	0x3cdeda34	0.027203657
143	0x3ca1cce0	0.019751012
144	0xbd66561c	-0.056234464
145	0xbdd599ce	-0.104297265
146	0xbaf50673	-0.0018693939
147	0x3d55fd2b	0.052243393
148	0x3d9a3293	0.075291775
149	0xbd38f713	-0.045157503
150	0x3d821ebc	0.06353518
151	0xbc507c68	-0.012724973
152	0xbd1ccbc3	-0.03828026
153	0x3c9d9401	0.019235613
154	0xbe0c6551	-0.13710524
155	0xbdbcf62e	-0.092266425
156	0xbda2ba0b	-0.07945641
157	0xbd1501d4	-0.036378697
158	0x3c7e6be6	0.015528655
159	0xbdeb7750	-0.114973664
160	0x3d376c07	0.044780757
161	0xbd4c2a1d	-0.04984485
162	0xbc70cc40	-0.0146971345
163	0x3d8b2121	0.06793428
164	0xbe0b0312	-0.1357539
165	0x3c939d14	0.018019237
166	0x3b409f8a	0.0029391968
167	0xbe0b558e	-0.13606855
168	0xbe4f5821	-0.20248462
169	0xbc86f074	-0.016472079
170	0x3d2681b1	0.040651027
171	0xbd224d81	-0.039624695
172	0xbddde6cc	-0.10835037
173	0xbe31f298	-0.17377698
174	0xba8796b6	-0.0010344598
175	0x3c9aaaf8	0.018880352
176	0x3d48e602	0.049047478
177	0xbce56363	-0.028001493
178	0x3dc72a60	0.09724879
179	0xbdb28072	-0.08715905
180	0x3d50c47a	0.050968625
181	0x3d4f0040	0.050537348
182	0xbd921019	-0.07131977
183	0x3c128ce8	0.0089447275
184	0xbe0b4404	-0.13600165
185	0x3d856239	0.06512875
186	0xbe171dd3	-0.14757471
187	0xbde23f32	-0.1104721
188	0xbce5f660	-0.028071582
189	0xbd8afbb9	-0.067862935
190	0xbd3b9cf4	-0.04580398
191	0x3d9c01ca	0.07617529
192	0x3d72bd6a	0.05926267
193	0xbd6ba9dc	-0.057535037
194	0xbccd853d	-0.025087947
195	0xbd2d346a	-0.042286314
196	0xbdc190ca	-0.094514444
197	0xbdc592dd	-0.096471526
198	0xbd88aabc	-0.0667319
199	0xbe6897ee	-0.22714207
200	0xbe7aa646	-0.24477491
201	0xbcdf486a	-0.02725621
202	0xbd572132	-0.052521892
203	0xbc97ff9b	-0.0185545
204	0xbe97b92a	-0.29633456
205	0xbe38886d	-0.18020792
206	0xbe28b7a4	-0.16476303
207	0xbdefdb90	-0.117118
208	0xbb1ea94b	-0.0024209793
209	0x3de94564	0.11390188
210	0xbe4564ce	-0.19276735
211	0xbdec89a2	-0.11549689
212	0x3d2400f3	0.040039968
213	0xbea3833f	-0.3193607
214	0x3c915f98	0.017745778
215	0xbd8af6f6	-0.06785385
216	0x3cc52c5b	0.024069002
217	0x3c516b36	0.012781909
218	0xbdd0b824	-0.10191372
219	0x3d538db0	0.051648796
220	0xbe153f09	-0.14574827
221	0x3ccdf730	0.025142282
222	0xbd2fa215	-0.042879183
223	0xbc84b4de	-0.016199525
224	0x3da357da	0.07975741
225	0x3c9a65ce	0.018847372
226	0x3dfb0bd4	0.122581154
227	0xbd65395d	-0.05596291
228	0xbcf4b144	-0.029869683
229	0x3d78bcd1	0.060726944
230	0x3e6f2bae	0.23356506
231	0xbe28bc45	-0.16478069
232	0x3d3964ed	0.045262266
233	0x3d9b1184	0.075717
234	0xbdf4f306	-0.119604155
235	0x3d438865	0.047737498
236	0xbbbd8455	-0.0057835975
237	0x3daaa0f5	0.08331481
238	0xbda982ea	-0.08276923
239	0xbd94d746	-0.07267623
240	0xbea32142	-0.3186131
241	0xbc9b4df4	-0.01895807
242	0xbd34dfd4	-0.04415877
243	0xbe031e1d	-0.12804456
244	0xbc46a93e	-0.012125311
245	0x3e0bf5f4	0.13668042
246	0xbdf60085	-0.12011818
247	0x3e1c9178	0.15289867
248	0x3d05c906	0.032662414
249	0xbc6e4c5a	-0.014544571
250	0xbdfd75f5	-0.12376014
251	0xbdac626e	-0.084172115
252	0x3bcfaf10	0.0063380077
253	0x3d8bdff0	0.06829822
254	0xbe24b04a	-0.16082874
255	0x3d9d24af	0.076730125

linear2.bias f4 [20]
0	0xbe46bb5a	-0.19407406
1	0xbe1f40a5	-0.15552004
2	0x3ee503b3	0.44729385
3	0xbe1b3d7e	-0.15160176
4	0x3e093604	0.13399512
5	0xbdd13eff	-0.10217094
6	0xbe27cedc	-0.16387504
7	0xbe42482f	-0.18972848
8	0x3e02910f	0.12750648
9	0xbe0a8322	-0.13526586
10	0xbe1da8d1	-0.1539643
11	0x3d9e0b63	0.077170156
12	0xbdce10f1	-0.10061825
13	0xbde109b7	-0.10988181
14	0xbc53902f	-0.012912794
15	0xbe3be384	-0.18348509
16	0x3d86d1d0	0.06582987
17	0x3cf3baf7	0.029752238
18	0xbd97eaac	-0.07417807
19	0xbe25bc83	-0.16185193

linear3.weight f4 [2, 20]
0	0xbd1ff025	-0.03904738
1	0x3e36dde6	0.17858085
2	0x3dd6d4cb	0.10489806
3	0x3d8526c6	0.06501536
4	0x3bcdeb20	0.0062841326
5	0xbdcf5d8f	-0.10125267
6	0xbd805b52	-0.06267418
7	0xbc10502c	-0.008808177
8	0x3d223c36	0.039608203
9	0x3e49b3e3	0.19697528
10	0xbd612499	-0.054966543
11	0x3de80194	0.11328426
12	0xbdd4b2f6	-0.103856966
13	0xbe1cb64e	-0.15303919
14	0xbe31c4b0	-0.17360187
15	0x3e59a8c5	0.21255787
16	0xbde3de3b	-0.111263715
17	0xbd95d8c0	-0.073167324
18	0xbd9182b5	-0.071050085
19	0xbd3bc57a	-0.045842625
20	0xbd6bf721	-0.057608727
21	0x3e28e56b	0.16493766
22	0xbc3c4e1a	-0.01149323
23	0x3e0e6408	0.13905346
24	0xbbce7f7d	-0.006301819
25	0xbdffe17d	-0.1249418
26	0xbda1d6e6	-0.07902317
27	0xbd092ee6	-0.03349199
28	0x3d2851d3	0.04109366
29	0x3e2febd7	0.1717981
30	0xbdb57d06	-0.08861737
31	0x3e2909a4	0.16507584
32	0xbe17154f	-0.14754222
33	0xbe01ae1d	-0.12664075
34	0x3d83693c	0.06416556
35	0x3e45b42e	0.19307014
36	0xbdc7e123	-0.09759738
37	0x3b24c507	0.0025141852
38	0xbd428658	-0.0474914
39	0xbd62be7a	-0.055357434

linear3.bias f4 [2]
0	0x3ecf129d	0.40443888
1	0xbec6c5fd	-0.38822928
